HW2/model1.pth (torch, 79621 bytes, 7 tensors)

net.0.weight f4 [256, 8]
0	0x3dda2ed3	0.10653462
1	0x3dd2e237	0.10297053
2	0xbc7c36b8	-0.015393905
3	0xbd16f5ad	-0.03685539
4	0xbda59d1d	-0.080866076
5	0xbe3ea866	-0.18618926
6	0xbe1cda93	-0.15317754
7	0xbd2941c5	-0.04132249
8	0x3e81b538	0.2533357
9	0x3cfda17c	0.03096079
10	0x3eab1aaf	0.33418795
11	0xbdc0bf5d	-0.094115
12	0x3e8897eb	0.26678404
13	0x3d7d4e70	0.061842382
14	0xbe0438e1	-0.12912323
15	0xbe029ea3	-0.12755828
16	0x3e54049e	0.20704886
17	0xbda27f3c	-0.07934424
18	0x3db2f7b7	0.08738654
19	0x3d62bbe5	0.05535497
20	0x3e4886dd	0.19582696
21	0x3e4c85d6	0.1997293
22	0xbeb47ab1	-0.35249856
23	0x3c5f444d	0.013627124
24	0xbe98e7f9	-0.2986448
25	0x3e02d66c	0.12777108
26	0xbc12e3c0	-0.008965433
27	0x3d9f324f	0.077732675
28	0x3e981713	0.29705104
29	0xbdb459ec	-0.08806214
30	0x3e8dce96	0.27696675
31	0x3eace5e4	0.33769143
32	0x3e38a099	0.18030013
33	0xbe8f4057	-0.27978775
34	0xbe00b919	-0.12570609
35	0x3e2b0db7	0.1670445
36	0x3e870f4c	0.26378858
37	0x3d27a1bf	0.040925737
38	0x3e6d4335	0.23170169
39	0x3e25435a	0.16138974
40	0xbe17ef96	-0.14837489
41	0xbe61819a	-0.22022095
42	0xbe4e400c	-0.2014162
43	0x3df5ed33	0.12008133
44	0x3d036b65	0.03208484
45	0x3e49b5b8	0.19698226
46	0x3e9cec44	0.30649006
47	0x3e843a5d	0.25825778
48	0x3d2d2016	0.042266928
49	0xbe5feae3	-0.21866946
50	0xbd8f1381	-0.06986142
51	0xbe9fa8bd	-0.31183425
52	0x3eac6582	0.33671194
53	0x3dffe33d	0.12494514
54	0xbea12e26	-0.3148052
55	0xbe377249	-0.1791469
56	0x3eafb213	0.34315547
57	0x3e9efccc	0.31052244
58	0x3d947376	0.07248585
59	0x3d5c56e0	0.053793788
60	0xbe84d026	-0.25940055
61	0x3db132ab	0.08652242
62	0xbe8ac134	-0.27100527
63	0xbe391641	-0.18074895
64	0x3e9c8317	0.30568764
65	0xbce3fcee	-0.027830567
66	0xbeaa7227	-0.33290216
67	0x3dc203be	0.0947337
68	0x3d9a1603	0.0752373
69	0xbe998e3a	-0.29991323
70	0x3eb0f07d	0.34558478
71	0x3e9b270a	0.30303222
72	0x3e89bcf8	0.26901984
73	0x3ea27e63	0.3173705
74	0x3e50e563	0.20400004
75	0xbe89c9bf	-0.26911733
76	0xbe85a40c	-0.2610172
77	0xbdbcce7c	-0.09219071
78	0x3e0d0cb9	0.13774385
79	0x3ebff338	0.3749025
80	0x3dc33df0	0.09533298
81	0x3d89b594	0.067240864
82	0xbe1bcd9b	-0.15215151
83	0xbe34e430	-0.17665172
84	0x3dff5ca7	0.12468844
85	0x3e0a5948	0.1351062
86	0xbe6ad3df	-0.22932385
87	0x3b96c02a	0.0046005445
88	0xbe81d737	-0.25359508
89	0x3deb9c25	0.115043916
90	0x3eb1a400	0.34695435
91	0xbe8f4c04	-0.27987683
92	0xbe722c52	-0.2364972
93	0x3e513217	0.20429264
94	0xbe9318d8	-0.28729892
95	0xbe92a1fd	-0.28639212
96	0x3df00e09	0.11721427
97	0x3e53b298	0.20673597
98	0x3dde4c0f	0.10854351
99	0xbe1d3623	-0.15352683
100	0x3e92af54	0.2864939
101	0xbdd77b48	-0.10521561
102	0xbd3370b9	-0.043808673
103	0xbd67998d	-0.05654292
104	0x3e9502d2	0.29103714
105	0x3d86c11c	0.065798014
106	0xbe982d9f	-0.29722306
107	0x3dff570b	0.12467774
108	0xbb1e8bac	-0.0024192138
109	0xbeac8d9e	-0.33701795
110	0xbb5f878f	-0.0034107899
111	0x3e529f82	0.2056866
112	0x3e8d43db	0.27590832
113	0xbdbb9648	-0.09159523
114	0x3e94f15b	0.2909039
115	0xbeb165d4	-0.34648
116	0x3db9090e	0.0903493
117	0xbe1a6ccf	-0.1508057
118	0x3dcd5a0c	0.10026941
119	0x3deddcc4	0.11614373
120	0x3e3c4440	0.1838541
121	0xbe0bdb38	-0.13657844
122	0x3c4b62df	0.012413709
123	0xbd90c361	-0.070685156
124	0x3df97706	0.12180905
125	0x3e82fb9d	0.2558259
126	0x3eb394f5	0.35074583
127	0x3d362b82	0.044475086
128	0xbe930120	-0.28711796
129	0x3c0cbe61	0.008590312
130	0x3e329e76	0.1744326
131	0x3eaaf721	0.3339167
132	0x3e700ccf	0.23442386
133	0x3dd648c2	0.10463096
134	0xbd6bf0ee	-0.057602815
135	0x3e6c3547	0.23067199
136	0xbd15028c	-0.036379382
137	0xbeb5e4f6	-0.35526246
138	0x3e446712	0.19179943
139	0xbda83e9d	-0.082150675
140	0xbda41954	-0.080126435
141	0xbea080f3	-0.3134838
142	0xbc660037	-0.014038137
143	0xbdb46d70	-0.08809936
144	0xbeab6c82	-0.33481222
145	0x3e9cb338	0.30605483
146	0xbcdeede8	-0.027213052
147	0xbe8b201e	-0.2717294
148	0x3e2b7bf0	0.16746497
149	0xbe64b07d	-0.2233295
150	0x3de6e304	0.112737685
151	0xb768fe4e	-1.38874875e-05
152	0x3e4993ab	0.19685237
153	0x3ea12d50	0.31479883
154	0x3e09c8e6	0.13455543
155	0x3db688f9	0.08912844
156	0xbe82d8e5	-0.25556102
157	0x3e55ba9e	0.2087197
158	0xbe9fa4ad	-0.31180325
159	0xbd9de4b1	-0.07709635
160	0xbd3f69cb	-0.04673175
161	0xbe46d8bd	-0.19418617
162	0x3d95fda3	0.07323768
163	0x3e3bd59a	0.18343201
164	0xbe02cfae	-0.12774536
165	0x3dbf8d9b	0.09353181
166	0xbdf9de92	-0.12200655
167	0xbead37a2	-0.33831507
168	0xbeaf957f	-0.34293744
169	0xbe575db9	-0.21031846
170	0x3d35e582	0.04440833
171	0x3e5f9fc7	0.21838294
172	0xbdfcd53c	-0.12345359
173	0x3e9f7b11	0.3114858
174	0x3e26b9d4	0.16281825
175	0x3e96429b	0.2934769
176	0x3e9eccc0	0.31015587
177	0x3e880243	0.26564226
178	0xbd173638	-0.03691694
179	0x3e88d468	0.26724553
180	0xbdec37bf	-0.1153407
181	0xbc8472cc	-0.01616802
182	0x3d8565de	0.0651357
183	0xbeacd65e	-0.337573
184	0x3d8e9cbd	0.06963489
185	0xbe950625	-0.2910625
186	0xbda07d39	-0.07836384
187	0x3c915145	0.017738948
188	0xbe0343a9	-0.12818779
189	0x3d83afa6	0.06429987
190	0x3eabc89f	0.335515
191	0x3e6ee5af	0.23329805
192	0xbe6671a2	-0.22504285
193	0x3e835b6c	0.25655687
194	0x3e98bc26	0.29831046
195	0xbdbba38d	-0.09162054
196	0x3e7c6ce8	0.2465092
197	0x3daa6ecb	0.08321913
198	0x3e62c177	0.22144113
199	0xbe4c8416	-0.19972262
200	0xbeaec4fd	-0.34134665
201	0xbe892f63	-0.26793966
202	0xbe116ca4	-0.142016
203	0xbe90fc8c	-0.28317678
204	0xbea2e751	-0.31817105
205	0xbe929c15	-0.28634706
206	0xbdbf73e0	-0.09348273
207	0xbeac8c78	-0.3370092
208	0xbdbc4a6e	-0.09193884
209	0x3e3b8cf6	0.18315491
210	0xbe2ddcd3	-0.16978769
211	0xbe649d1e	-0.2232556
212	0x3e0ea65f	0.13930653
213	0xbd9de1f0	-0.0770911
214	0xbe519e60	-0.20470572
215	0x3eb58163	0.35450277
216	0x3e173486	0.1476613
217	0x3d69c8bd	0.057076205
218	0xbe9f7904	-0.31147015
219	0x3d3d43c3	0.0462072
220	0xbeac0803	-0.33599862
221	0xbe325f2c	-0.17419118
222	0xbeb14755	-0.34624735
223	0x3de3ff28	0.111326516
224	0xbe4bd623	-0.19905905
225	0x3eabdfa6	0.33569068
226	0x3d110d26	0.03541293
227	0xbe5ec1ba	-0.21753588
228	0xbe8b6762	-0.27227312
229	0xbe98d071	-0.29846528
230	0x3eac0d8d	0.33604088
231	0xbe402be4	-0.18766743
232	0x3e530c1e	0.20610091
233	0xbcae4fca	-0.02127828
234	0x3eac0e30	0.33604574
235	0xbe6cdb25	-0.23130472
236	0xbe8da122	-0.27661997
237	0xbe80eaee	-0.25179237
238	0xbdbcc655	-0.09217516
239	0xbc43d82a	-0.011953393
240	0xbe89ec0b	-0.269379
241	0x3dc1e54a	0.094675615
242	0xbe9db9b6	-0.3080575
243	0x3e9dff09	0.3085864
244	0x3dfcb946	0.123400256
245	0xbe18dbe5	-0.14927633
246	0xbdba1b93	-0.090872906
247	0x3e47135a	0.19440976
248	0xbe6e6ba3	-0.23283248
249	0x3ce916b3	0.028453207
250	0xbb93b939	-0.0045081642
251	0xbe6ec5b1	-0.23317601
252	0xbe705bf9	-0.23472585
253	0xbe5c93eb	-0.21540801
254	0xbe0afce7	-0.13573037
255	0xbeba57ff	-0.3639526

net.0.bias f4 [256]
0	0x3ce80d68	0.028326705
1	0xbdb0dabe	-0.08635472
2	0x3e968609	0.29399136
3	0xbe617296	-0.22016367
4	0xbe268749	-0.16262545
5	0x3e39cf38	0.18145454
6	0x3a2c6814	0.0006576788
7	0x3e0fc7c3	0.14041047
8	0x3d8f5df1	0.0700034
9	0x3e940863	0.2891265
10	0xbd64af72	-0.05583138
11	0x3e68e8ac	0.22745007
12	0xbe7b0e4b	-0.24517171
13	0xbe0ad572	-0.13557985
14	0x3d04f345	0.032458562
15	0x3e78f977	0.24313913
16	0xbd823c19	-0.06359119
17	0xbda99804	-0.08280948
18	0x3e8da6f4	0.27666438
19	0x3cb67160	0.022270858
20	0x3e9c56c5	0.3053495
21	0xbe935d0f	-0.28781936
22	0x3accfe16	0.0015639688
23	0xbea86dc2	-0.3289624
24	0xbd9a8504	-0.07544902
25	0xbe2a14ee	-0.16609547
26	0x3bb86c5b	0.0056281514
27	0xbeacaad9	-0.33724096
28	0xbd27681b	-0.040870767
29	0xbdadd688	-0.08488184
30	0x3e3e3d21	0.18578006
31	0xbea0c62b	-0.3140119
32	0xbd708296	-0.058718286
33	0xbeb6b022	-0.35681254
34	0xbe273928	-0.16330397
35	0xbe8d3a24	-0.2758342
36	0x3cb2830e	0.021791007
37	0xbe01a5bf	-0.12660883
38	0xbd0d077f	-0.034430977
39	0xbe4f19f1	-0.2022474
40	0x3da1cbeb	0.079002224
41	0xbe22d02e	-0.15899727
42	0x3d30b25e	0.043138854
43	0xbeb14941	-0.346262
44	0x3e9eff93	0.31054363
45	0xbca78e78	-0.020453677
46	0x3e28291c	0.16421932
47	0x3dfad240	0.12247133
48	0x3e3e3995	0.18576653
49	0x3e9d331a	0.3070305
50	0xbe79167e	-0.24324986
51	0x3e349421	0.17634632
52	0x3e2c225d	0.16809984
53	0xbe66d92b	-0.2254378
54	0xbd29ffd9	-0.04150376
55	0xbde2054c	-0.110361665
56	0x3d85886c	0.06520161
57	0xbe86c22e	-0.26320022
58	0x3d2507f5	0.04029079
59	0x3e254dfc	0.1614303
60	0xbe929ddb	-0.2863606
61	0xbe801135	-0.25013128
62	0xbe5e6d75	-0.21721442
63	0xbd96480a	-0.07337959
64	0xbe9083dd	-0.28225604
65	0xbdeadb2e	-0.114675865
66	0x3e528a1a	0.20560494
67	0x3e34aeea	0.1764485
68	0xbe9c5aba	-0.3053797
69	0xbe7dee68	-0.24797976
70	0x3e5e132d	0.21687002
71	0x3d39a5b3	0.04532404
72	0xbdea4563	-0.11439016
73	0x3d941b82	0.07231809
74	0x3e525a0c	0.20542163
75	0x3cf3dbda	0.02976792
76	0xbe5b4f01	-0.21416856
77	0x3dbd8e77	0.09255689
78	0xbe980846	-0.29693812
79	0xbeafd530	-0.34342337
80	0xbe78ab95	-0.24284203
81	0x3d67d788	0.05660203
82	0xbe9661ae	-0.293714
83	0x3e763ba0	0.24046183
84	0x3e8810f9	0.2657545
85	0xbe887085	-0.26648346
86	0x3e990b6e	0.29891533
87	0xbdb79b99	-0.08965225
88	0x3ea02e6e	0.31285423
89	0xbe868066	-0.26269835
90	0x3daa7cd9	0.08324594
91	0x3e5adde5	0.21373709
92	0xbe046897	-0.12930523
93	0xbdd97ae1	-0.106191404
94	0x3e708792	0.23489216
95	0xbdb94b6e	-0.0904759
96	0xbe7d8070	-0.24756026
97	0xbe22dafc	-0.15903848
98	0xbe463555	-0.19356282
99	0xbe9b9824	-0.30389512
100	0x3e0eb69c	0.13936847
101	0xbd9e86f1	-0.07740582
102	0xbcc896af	-0.024485914
103	0x3da25f7d	0.07928369
104	0x3c9e57df	0.01932901
105	0x3d5415f1	0.051778737
106	0x3e9208f4	0.28522456
107	0xbe293333	-0.16523437
108	0x3e8fd377	0.28091022
109	0xbe1d44b5	-0.15358241
110	0x3e413831	0.18869092
111	0xbe1c6149	-0.15271486
112	0x3c0ccec7	0.008594221
113	0xbe23e65d	-0.16005845
114	0xbd93d945	-0.07219175
115	0x3e31e667	0.17373048
116	0x3eae9421	0.34097388
117	0xbe401162	-0.18756631
118	0xbe99c1b0	-0.30030584
119	0xbd725514	-0.059163168
120	0x3df4b0bd	0.11947773
121	0xbc53d4e8	-0.012929179
122	0xbd87197d	-0.065966584
123	0xbe8046e8	-0.25054097
124	0x3d1bb73c	0.038016543
125	0xbe9a682f	-0.3015761
126	0xbe74744d	-0.2387249
127	0xbe7f0f7e	-0.24908254
128	0x3e316ad3	0.17325906
129	0xbe581346	-0.21101102
130	0xbdbb261c	-0.09138128
131	0x3e99d51a	0.30045396
132	0x3eb14cf1	0.34629014
133	0x3ea66537	0.32499096
134	0x3d67a385	0.05655243
135	0xbea794f7	-0.3273084
136	0xbdd6d31c	-0.10489485
137	0x3e15be85	0.14623459
138	0x3e15b8ff	0.14621352
139	0xbe859a07	-0.26094076
140	0x3e1a110f	0.1504557
141	0x3e3ff645	0.18746288
142	0xbe87b947	-0.26508543
143	0x3e35a971	0.17740418
144	0xbd8c06c4	-0.06837228
145	0xbdf009f8	-0.117206514
146	0x3d6e43c0	0.05817008
147	0xbe513d25	-0.20433481
148	0x3e49b8da	0.19699422
149	0x3e8da4a2	0.27664667
150	0x3e0880fa	0.1333045
151	0xbe279b51	-0.16367842
152	0xbde90be1	-0.11379219
153	0xbe911d72	-0.28342777
154	0x3dcd4249	0.100224085
155	0xbca102e5	-0.0196547
156	0xbe0ab8a8	-0.13547003
157	0xbd9361d1	-0.071963914
158	0x3e3e1cfc	0.18565744
159	0xbcdf45ad	-0.027254904
160	0x3e9c4e06	0.30528277
161	0x3e6cb844	0.23117167
162	0x3eaa7eb3	0.3329979
163	0x3ead8b0e	0.33895153
164	0x3e439144	0.19098383
165	0xbd98dcca	-0.07463987
166	0x3e03c4ad	0.12867995
167	0x3e0f20cd	0.13977356
168	0x3daf4bf6	0.0855941
169	0xbd478bd1	-0.048717324
170	0xbdb25df5	-0.08709327
171	0x3d2ebb02	0.042658813
172	0x3e8fc35b	0.28078732
173	0x3ea0c5a4	0.31400788
174	0x3c078a0f	0.008272662
175	0x3ea855e5	0.32878032
176	0x3eacdab7	0.33760616
177	0xbeb6aa24	-0.35676682
178	0x3d88a987	0.0667296
179	0xbe850f10	-0.25988054
180	0xbe8a8e5c	-0.27061737
181	0xbdcba420	-0.09943414
182	0xbe9a6bb1	-0.30160287
183	0x3dc6932b	0.09696039
184	0xbceb30b6	-0.02870975
185	0xbe8cfcb1	-0.27536538
186	0x3e915f83	0.28393182
187	0xbe92eb80	-0.28695297
188	0x3ead1ef8	0.3381269
189	0x3d88aa83	0.066731475
190	0xbe74fdc0	-0.23924923
191	0x3d37d888	0.044884235
192	0xbe2b0aea	-0.16703382
193	0x3d00c4f0	0.031437814
194	0xbe7d4459	-0.24733104
195	0x3e563f70	0.20922637
196	0xbe9b613c	-0.3034762
197	0x3eafb09e	0.34314436
198	0xbc7cab90	-0.015421763
199	0x3e006c90	0.12541413
200	0xbd236321	-0.03988946
201	0xbd5de8bd	-0.054177035
202	0xbdfae460	-0.1225059
203	0x3e9d675c	0.3074292
204	0x3eb26bf8	0.34848
205	0x3da7086a	0.08155902
206	0xbdfca7ba	-0.12336679
207	0xbda5b03f	-0.08090257
208	0xbe40eb24	-0.18839699
209	0xbe9cb355	-0.3060557
210	0x3dcf3e3f	0.101192944
211	0xbe98f128	-0.29871488
212	0x3e9da78a	0.30791885
213	0x3e74c862	0.23904565
214	0xbd074126	-0.033021115
215	0x3e7b816f	0.24561094
216	0x3d378dce	0.04481297
217	0x3e7cc407	0.24684153
218	0xbbf451f6	-0.0074560596
219	0x3dab16aa	0.08353932
220	0xbe5f009c	-0.21777576
221	0x3e9e93aa	0.30972034
222	0xbe7c1b07	-0.24619685
223	0x3e0521ec	0.13001221
224	0xbe1d0a90	-0.1533606
225	0x3dae71b2	0.085177794
226	0x3e8c6c95	0.27426592
227	0xbea45eef	-0.3210368
228	0xbe4db4a9	-0.20088448
229	0x3c6ef719	0.01458528
230	0x3e82331a	0.25429612
231	0xbbe7a9e0	-0.007069811
232	0xbe1ecd0d	-0.15507908
233	0xbea464c0	-0.32108116
234	0xbd809f0b	-0.06280335
235	0x3ddeff06	0.108884856
236	0x3ea76284	0.3269235
237	0xbe9072b6	-0.28212517
238	0x3e8004af	0.25003573
239	0x3e2a9fad	0.16662474
240	0xbd830bdb	-0.063987456
241	0x3d88e068	0.06683427
242	0x3e8e6afe	0.27816004
243	0x3e240bc0	0.16020107
244	0xbc8c7825	-0.017147133
245	0x3eaee334	0.34157717
246	0xbead2080	-0.33813858
247	0xbeb2c952	-0.3491922
248	0x3e9ff1fc	0.31239307
249	0xbe94c519	-0.29056624
250	0xbe6d01e1	-0.23145248
251	0xbdc1109c	-0.09426996
252	0xbd09abb6	-0.033611022
253	0x3e0803a6	0.13282642
254	0x3e856f4f	0.26061484
255	0x3e98e0f6	0.29859132

net.2.weight f4 [64, 256]
0	0x3cee3a85	0.029080639
1	0x3c288f78	0.010288112
2	0x3d3fcc44	0.046825662
3	0x3cc5cafc	0.024144642
4	0xbd5bafff	-0.05363464
5	0xb9adeef4	-0.00033175165
6	0x3c6a9657	0.01431807
7	0x3c999677	0.018748505
8	0x3d00ea26	0.0314733
9	0x3d387d90	0.04504162
10	0x3d6aa40f	0.057285365
11	0xbc9fc867	-0.019504739
12	0xbd130339	-0.035891745
13	0xbbccd506	-0.0062509803
14	0xba010ef0	-0.00049231853
15	0xbcdcb098	-0.026939675
16	0xbd40d7ed	-0.047080923
17	0x3cda75bc	0.026667468
18	0xbb1bfdf9	-0.0023802503
19	0x3d06bcc0	0.03289485
20	0x3ca84eeb	0.020545444
21	0x3d402795	0.04691275
22	0x3d0cf542	0.034413584
23	0xbae46564	-0.0017425236
24	0xbcf6effd	-0.030143732
25	0x38b5752c	8.6525775e-05
26	0x3cebb7c3	0.028774148
27	0xbd740722	-0.059577115
28	0xbc23e909	-0.01000429
29	0x3cd73317	0.026269479
30	0x3d774909	0.060372386
31	0xbd468685	-0.04846813
32	0x3c833a88	0.01601912
33	0xbd8b571c	-0.06803724
34	0x3d2aa858	0.04166445
35	0x3d49ad5e	0.0492376
36	0xbc310819	-0.010805153
37	0x3d1af4e6	0.03783121
38	0x3c8f86f1	0.0175204
39	0x3d84f052	0.0649115
40	0x3ca158ed	0.019695723
41	0x3c4c850b	0.012482892
42	0x3d362f75	0.044478852
43	0xbd7311c0	-0.0593431
44	0xbc98f9b6	-0.018673759
45	0x3c8a3b3c	0.016873948
46	0xba914007	-0.0011081704
47	0xbd171a1c	-0.036890134
48	0x3d7ab734	0.061209872
49	0x3cfac210	0.030610114
50	0xbd832269	-0.064030476
51	0xbcc79e51	-0.024367483
52	0x3cee3f49	0.029082911
53	0x3ca48b49	0.020085948
54	0xbc6c421c	-0.014420059
55	0x3d2ea404	0.042636886
56	0x3cb86b09	0.022511976
57	0xbd55f670	-0.052236974
58	0x3d4969ea	0.049173273
59	0xbc0b7e4d	-0.008513999
60	0x3ceb76ba	0.028743137
61	0x3d3be8ed	0.045876432
62	0x3ce609f6	0.028080922
63	0x3d19a467	0.037510302
64	0xbd4a4cf7	-0.049389806
65	0xbcfa7c7e	-0.03057694
66	0x3d41a79f	0.047278997
67	0xbd58baad	-0.052912403
68	0x3d040aea	0.03223697
69	0xbd0bb894	-0.034111574
70	0x3d5e8a43	0.054331075
71	0xbc6711cb	-0.014103363
72	0x3cb49e35	0.022048095
73	0x3cfea77d	0.031085724
74	0x3d3a43e7	0.045474913
75	0xbd25e001	-0.04049683
76	0xbd5268d9	-0.05136952
77	0xb91db504	-0.0001504012
78	0x3c978d3d	0.018499965
79	0x3c10c9c9	0.008837172
80	0x3c1c7910	0.009550348
81	0x3d1215b9	0.035665248
82	0xbd7f3233	-0.062303733
83	0xbd2de00e	-0.042450003
84	0x3d4af3e8	0.049549013
85	0xbd9e8ea9	-0.07742054
86	0xbcdfdbb8	-0.02732645
87	0xbd36e5ca	-0.044652738
88	0x3c5bbf29	0.013412275
89	0x3d65a005	0.05606081
90	0xbcdff316	-0.027337592
91	0xbc526dcb	-0.0128435595
92	0xbcd60f56	-0.02613036
93	0x3c238d1e	0.009982375
94	0x3c267c0d	0.010161412
95	0xbd0c8609	-0.034307513
96	0xbd30c276	-0.043154202
97	0x3c9261af	0.017868845
98	0xbd39dc7c	-0.045376286
99	0x3d36e26d	0.04464953
100	0xbc977002	-0.018486027
101	0xbcd1f320	-0.025628626
102	0xbd6fc121	-0.05853379
103	0x3c914700	0.01773405
104	0xbb8d4377	-0.004311021
105	0x3d87b4b5	0.06626264
106	0xbcb0cc78	-0.021581873
107	0xbd13ab28	-0.0360519
108	0x3d87af4d	0.06625233
109	0x3d5425f0	0.051793993
110	0x3d444c8b	0.04792456
111	0x3d5f8b37	0.054576125
112	0xbd311e5b	-0.04324184
113	0xbb22a0bc	-0.0024815043
114	0xbcbf49e5	-0.023350665
115	0x3cd744f6	0.026278
116	0x3d6ac7ae	0.057319336
117	0x3c77797b	0.015104647
118	0xbb2c1d12	-0.0026262444
119	0xbc132ffd	-0.008983609
120	0xbab1317f	-0.0013518779
121	0x3d692bd0	0.05692655
122	0x3c9bae77	0.01900409
123	0xbd3b5403	-0.045734417
124	0x3d0a8c72	0.033825345
125	0xbd698f7a	-0.057021596
126	0x3d318d15	0.043347437
127	0xbd3d7220	-0.046251416
128	0x3c10fe2a	0.00884966
129	0x3c4f7214	0.012661476
130	0x3d57b1df	0.052659865
131	0xbd313419	-0.043262575
132	0xbd2df039	-0.042465422
133	0x3c45ff8a	0.012084851
134	0x3d6b6c25	0.05747618
135	0x3c197118	0.009365343
136	0x3d40197e	0.04689931
137	0x3c90edbf	0.017691491
138	0x3d3d1371	0.04616112
139	0x3c0e4f57	0.008685908
140	0xbd209a47	-0.03920963
141	0xbc73bd0d	-0.014876616
142	0xbc54ebe8	-0.012995698
143	0xbc8b7d76	-0.017027598
144	0x3cb4e405	0.022081384
145	0x3c91819b	0.017761996
146	0x3d5b70a4	0.05357422
147	0xbd2f7f5c	-0.04284607
148	0x3d2241ee	0.039613657
149	0xbcc10546	-0.023562085
150	0x3c8e8994	0.017399587
151	0xbd70a5fe	-0.058752052
152	0x3cc406a5	0.02392895
153	0xbd74835a	-0.05969558
154	0xbcc3f148	-0.023918763
155	0x3d168a36	0.036752902
156	0xbcd478e8	-0.025936559
157	0x3ad26b43	0.0016053695
158	0x3c802790	0.015643865
159	0x3ca4829c	0.02008181
160	0xbd29df2c	-0.0414726
161	0x3bcea421	0.006306187
162	0x3cd3858f	0.025820522
163	0x3d433cec	0.04766552
164	0xbba17a42	-0.0049279043
165	0x3d4ed77f	0.05049848
166	0xbcfed55a	-0.031107593
167	0x3cf96d1d	0.030447537
168	0x3bf8df87	0.007595006
169	0x3cbd1200	0.023079872
170	0xbcffee2f	-0.031241504
171	0xbd6dd637	-0.05806562
172	0xbbccc9b1	-0.0062496294
173	0xbc4b6940	-0.01241523
174	0xbd7a3713	-0.06108768
175	0xbd45b3b8	-0.048267096
176	0xbcf3386d	-0.029689992
177	0xbcd588fb	-0.026066294
178	0xbbe53eed	-0.0069960267
179	0x3d2733da	0.040820934
180	0x3c9bb5b7	0.019007547
181	0xbcbdd088	-0.023170725
182	0x3d35a479	0.044346306
183	0xbd389fa3	-0.045074116
184	0x3d7e52f4	0.06209083
185	0xbd828d3e	-0.06374596
186	0xbd0c0de8	-0.03419295
187	0xbc84fc52	-0.016233597
188	0xbd8aee55	-0.067837395
189	0x3d23dd96	0.040006243
190	0x3bca5d08	0.006175641
191	0xbd48adbe	-0.04899382
192	0xbcb63f5b	-0.022247007
193	0xbd0068ef	-0.031350072
194	0xbd42a62b	-0.04752175
195	0x3c49a60a	0.012307653
196	0x3d22b8b8	0.039726943
197	0xbd0cc4c6	-0.034367345
198	0xbcc5c827	-0.024143292
199	0xbcaf5f07	-0.021407617
200	0x3ba9f43f	0.005186587
201	0x3d59f42b	0.053211372
202	0xbceaf25a	-0.028680015
203	0x3c517098	0.012783192
204	0x3d8031e0	0.06259513
205	0x3af219ae	0.0018470788
206	0x3d4a6d14	0.04942043
207	0x3b0d8a6d	0.00215974
208	0xbd2e4e54	-0.04255517
209	0x3d389ec8	0.0450733
210	0xbcc1a00b	-0.023635885
211	0xbd4ebefe	-0.050475113
212	0xbc3756be	-0.011190115
213	0xbac87299	-0.0015292942
214	0x3d49e21b	0.049287897
215	0x3d083277	0.033251252
216	0x3c862b7d	0.016378159
217	0x3c5df269	0.013546565
218	0xbd3cc0e8	-0.046082407
219	0xbd3ec7aa	-0.046577133
220	0xbd3dae28	-0.046308666
221	0x3c15bf39	0.009139829
222	0x39a33ca2	0.00031134958
223	0x3c7dba2f	0.015486284
224	0xbc400da7	-0.011722005
225	0x3bad6125	0.0052911215
226	0x3d15a13a	0.03653071
227	0x3d000997	0.031259146
228	0xbd342288	-0.043978244
229	0x3a8c6008	0.0010709772
230	0xbd882f24	-0.06649616
231	0xbc671417	-0.014103911
232	0xbd5291a8	-0.05140844
233	0xbbdbc0ec	-0.0067063477
234	0x3c8c5d7c	0.01713442
235	0xbd8d67ad	-0.0690454
236	0xbcaf75e5	-0.021418521
237	0xbcef9a32	-0.02924833
238	0xbd2633cb	-0.040576737
239	0xbd4ac3e0	-0.049503207
240	0xbd137922	-0.036004193
241	0x3d5501da	0.05200372
242	0xbd6ccd81	-0.05781317
243	0x3cb3890d	0.021915937
244	0x3a89fa75	0.0010526913
245	0x3d1447b1	0.036201183
246	0xba4764e7	-0.0007606283
247	0xbd1b356a	-0.037892736
248	0xbcabd380	-0.020974874
249	0xbcbd1864	-0.02308292
250	0xbc92f369	-0.017938333
251	0x3caebaf7	0.021329386
252	0x39699aaf	0.00022278236
253	0x3d55ea9b	0.05222569
254	0x3c9c5a68	0.019086078
255	0x3d59ca8c	0.05317168

net.2.bias f4 [64]
0	0x3c8f0592	0.01745871
1	0xbd164d43	-0.036694776
2	0x3d5be44f	0.05368453
3	0xbd128040	-0.03576684
4	0xbcf4757c	-0.029841177
5	0xbc6cd248	-0.014454432
6	0x3d35c49a	0.044376947
7	0x3dfdf51e	0.12400268
8	0xbb6cca74	-0.0036131414
9	0x3d361ead	0.04446285
10	0x3cc49b24	0.023999758
11	0xbd603ff4	-0.05474849
12	0x3d2a8494	0.041630343
13	0xbd17d9e6	-0.03707304
14	0xbce3542b	-0.027750095
15	0xbc8076f4	-0.015681721
16	0xbd6d983b	-0.058006506
17	0xbd830d3b	-0.06399008
18	0xbd4ed36a	-0.05049459
19	0xbbfb68c2	-0.0076724
20	0x3d6592a0	0.056048036
21	0xbd4a61db	-0.04940973
22	0xbd21e43f	-0.039524313
23	0x3d94432d	0.07239375
24	0xbd874b13	-0.06606116
25	0xbcb98a02	-0.022648815
26	0x3c0d6947	0.008631057
27	0xbc0c8624	-0.0085769035
28	0xbc3ee73f	-0.011651813
29	0x3d375c20	0.04476559
30	0xbd1c6c9d	-0.03818952
31	0x3c068462	0.008210273
32	0x3be2c620	0.006920591
33	0x3cfb9122	0.030708853
34	0x3cd0b0c8	0.02547492
35	0xbc3133fb	-0.010815616
36	0xbc58a526	-0.013222968
37	0x3c67f6a2	0.014157923
38	0x3cfcddc0	0.030867457
39	0xbce24b39	-0.02762376
40	0x3ce3fab7	0.027829511
41	0x3d4ac116	0.049500547
42	0xbcf8c7b3	-0.030368662
43	0x3b9a81cc	0.00471518
44	0xbd011f81	-0.031524185
45	0xbd65dc2a	-0.056118168
46	0x3d16dd41	0.036832098
47	0x3de6bb54	0.11266199
48	0x3bd59765	0.006518292
49	0x3d1f710a	0.03892616
50	0xbc17c453	-0.009263116
51	0x3d0d01ed	0.034425665
52	0xbd726c57	-0.059185352
53	0xbcb5ab46	-0.022176396
54	0xbc0c35e4	-0.00855777
55	0x3d34686f	0.044044908
56	0x3d5c3e8d	0.05377059
57	0xbca795b1	-0.02045712
58	0xb913288b	-0.00014034116
59	0xbcb3c7b8	-0.02194582
60	0x3c4e8c81	0.012606741
61	0xbcd4da7e	-0.025983091
62	0x3d8e0282	0.06934072
63	0xbad5eb92	-0.0016320816

net.4.weight f4 [8, 64]
0	0x3c9148b0	0.017734855
1	0x3c439c3a	0.011939103
2	0xbda10731	-0.078627
3	0xbd5d9d08	-0.054104835
4	0xbda5c3ec	-0.0809401
5	0xbdcd847c	-0.10035035
6	0x3cfba026	0.030716013
7	0xbdb52dbc	-0.08846614
8	0x3de383ae	0.111091
9	0x3dc1644d	0.09442959
10	0xbcec2075	-0.02882407
11	0xbd2bdbc4	-0.04195763
12	0xbb80efda	-0.0039348425
13	0xbd6ccb6e	-0.057811193
14	0x3d05d3e3	0.032672774
15	0xbae8aa5a	-0.0017750964
16	0xbd086bb5	-0.033305842
17	0x3d3a12f3	0.045428228
18	0xbdbc72cb	-0.092015825
19	0xbdbb65dd	-0.09150288
20	0x3db81a2c	0.08989367
21	0x3de70538	0.11280292
22	0x3d8854e7	0.06656819
23	0x3a3c2af9	0.0007178034
24	0xbc043f81	-0.008071781
25	0xbd29db40	-0.04146886
26	0x3d72fe6b	0.059324663
27	0xbdcc2409	-0.09967811
28	0x3e018d00	0.12651443
29	0xbd33d891	-0.043907706
30	0xbc59cb12	-0.013293045
31	0xbd30a53d	-0.043126334
32	0x3d13a424	0.03604521
33	0xbdc07aee	-0.09398447
34	0xbc3663d4	-0.011132199
35	0xbdbd1b79	-0.092337556
36	0x3ca2d2ce	0.01987591
37	0x3c1155c8	0.0088705495
38	0x3d3284df	0.043583747
39	0x3c6d908a	0.014499793
40	0xbcee9261	-0.029122533
41	0x3d8f825c	0.07007286
42	0xbd828dcc	-0.06374702
43	0xbdc2b436	-0.09507029
44	0x3d0a93d0	0.03383237
45	0x3d717f68	0.058959395
46	0xbe02611b	-0.12732355
47	0xbd7b3ece	-0.061339192
48	0xbd82a67a	-0.06379409
49	0xbdb4354d	-0.08799229
50	0xbcc407fd	-0.02392959
51	0x3db0b7bc	0.086287946
52	0xbc988f62	-0.018623058
53	0x3c1ab42e	0.009442372
54	0xbdcd03f3	-0.10010519
55	0x3d892373	0.066962145
56	0xbca63fbe	-0.020294067
57	0xbd6c0206	-0.057619117
58	0x3d993980	0.074816704
59	0xbd6130db	-0.054978233
60	0x3dadf09c	0.08493158
61	0xbdb22e46	-0.08700232
62	0x3d2531cc	0.040330693
63	0x3d65bf6a	0.05609075
64	0x3d2d40e6	0.04229822
65	0xbcc6e93f	-0.024281142
66	0xbd8a0e71	-0.06741036
67	0x3b2e21cf	0.0026570444
68	0xbd5800ed	-0.052735258
69	0xbd72bd04	-0.05926229
70	0x3dc83f02	0.09777643
71	0x3d30887d	0.043098915
72	0x3cf82db0	0.030295223
73	0xbd2f51ca	-0.04280261
74	0xbc8bec30	-0.017080396
75	0x3dc0f308	0.094213545
76	0x3ddf6013	0.109069966
77	0xbdb896d2	-0.09013142
78	0x3cad968d	0.021189952
79	0xbdfc4977	-0.123187
80	0x3da919b0	0.082568526
81	0x3d10eaf1	0.035380308
82	0xbc16a89f	-0.009195476
83	0x3bf16d8b	0.007367795
84	0x3c25bdad	0.010116023
85	0xbbde47ff	-0.006783485
86	0x3df08073	0.1174325
87	0xbc4ed2c0	-0.012623489
88	0xbdc1e98e	-0.09468375
89	0xbb9f2e89	-0.0048578423
90	0x3d7560f9	0.059906933
91	0xbde0dc57	-0.109795265
92	0x3c79f5b1	0.015256331
93	0xbdf572be	-0.11984776
94	0x3ce752a5	0.02823765
95	0xbdabc21c	-0.08386633
96	0x3d8b396e	0.06798063
97	0xbdcc152b	-0.09964975
98	0xbd8acd39	-0.06777424
99	0xbcc98eaf	-0.02460417
100	0x3d4756bf	0.048666712
101	0x3c83aa12	0.016072307
102	0x3c29eeee	0.010371907
103	0xbdc14853	-0.09437623
104	0xbd844b00	-0.064596176
105	0xbc6c744b	-0.014432023
106	0xbda4b9b5	-0.08043233
107	0x3d57032c	0.05249326
108	0xbd7442c9	-0.059634004
109	0xbd3f1e8b	-0.046659987
110	0x3dceb786	0.10093598
111	0xbd6406ce	-0.055670552
112	0x3d8b0568	0.067881405
113	0x3d8688b6	0.06569044
114	0xbcd86a99	-0.026418017
115	0xbc5787aa	-0.013154903
116	0x3ddd3b58	0.108023345
117	0x3da7d772	0.0819539
118	0xbdac3cb1	-0.084100135
119	0xbdc963fa	-0.09833522
120	0x3c7004d6	0.0146495905
121	0x3d8f2f75	0.069914736
122	0xbd96be42	-0.073605075
123	0x3de81ea7	0.113339715
124	0x3d48fe35	0.049070556
125	0x3d54f8db	0.05199514
126	0x3d014fe6	0.031570338
127	0xbb4f5161	-0.00316342
128	0xbddae14c	-0.10687503
129	0xbd40e08e	-0.047089152
130	0xbd5a4976	-0.053292714
131	0x3b286f14	0.0025700973
132	0xbdb12e90	-0.08651459
133	0xbdd83def	-0.10558688
134	0x3cf655f8	0.03007029
135	0x3db59b5a	0.088675216
136	0xbcbf09f2	-0.023320172
137	0xbd265b2e	-0.0406143
138	0x3cc766ba	0.024340976
139	0x3db217ec	0.08695969
140	0x3d48d303	0.04902936
141	0x3dfd5e6f	0.123715274
142	0x3dede05b	0.11615058
143	0x3d82a7e8	0.06379682
144	0xbd946ade	-0.07246946
145	0xbdbbe282	-0.09174062
146	0xbd824f70	-0.06362808
147	0xbdd452e7	-0.10367375
148	0xbe0342a1	-0.12818386
149	0x3dc9e1f5	0.09857551
150	0x3d873eff	0.066038124
151	0x3e0063f9	0.12538137
152	0x3dc28b16	0.09499185
153	0xbc5bd129	-0.013416567
154	0xbd6e027a	-0.05810783
155	0xbcb0bcc0	-0.021574378
156	0xbd8bcfe0	-0.068267584
157	0x3d092c01	0.03348923
158	0xbcec2ac4	-0.028828986
159	0x3c36cfd1	0.011157946
160	0x3dab7487	0.08371835
161	0xba9ccf1a	-0.0011963577
162	0x3dbbafd8	0.09164399
163	0x3cf262bd	0.029588098
164	0x3d2187a5	0.039436
165	0x3d3631c0	0.04448104
166	0x3dc09b59	0.0940463
167	0xbc4e64c6	-0.012597268
168	0xbde83b6c	-0.11339459
169	0xbdd52017	-0.10406511
170	0xbca1a82d	-0.019733513
171	0xbd1e7435	-0.038685042
172	0xbdae1d2c	-0.08501658
173	0x3c3c48a4	0.011491928
174	0xbdb108ec	-0.0864428
175	0xbd266c59	-0.040630672
176	0xbd9c1b9a	-0.07622452
177	0xbdcbe242	-0.09955265
178	0xbdb204b9	-0.08692307
179	0xbd0a1579	-0.033711884
180	0xbd7437c5	-0.0596235
181	0xbd7b2e6b	-0.061323564
182	0xbd0eb476	-0.03484007
183	0xbc730131	-0.014831827
184	0xbd5250ca	-0.051346578
185	0x3c8d1567	0.01722212
186	0xbde4ac91	-0.11165727
187	0xbe005b87	-0.12534915
188	0x3c9b147a	0.018930662
189	0x3d99117d	0.07474039
190	0x3dbe2d5c	0.09285995
191	0x3dbd3eb8	0.09240478
192	0xbd261335	-0.04054566
193	0xbdc73747	-0.0972734
194	0x3d9acc51	0.075585015
195	0x3d834a52	0.0641066
196	0x3dc67360	0.09689975
197	0x3d2be703	0.041968357
198	0x3d2ed901	0.04268742
199	0xbe26af51	-0.16277815
200	0xbdc3e685	-0.095654525
201	0xbd8a2c15	-0.06746689
202	0x3dd9d49e	0.10636257
203	0xbda543c0	-0.08069563
204	0xbd88535f	-0.06656527
205	0xbae305e7	-0.0017320485
206	0x3d24d6c2	0.04024387
207	0x3dfec866	0.12440567
208	0x3da2591f	0.07927155
209	0xbd8e1b71	-0.06938828
210	0xbb479e0f	-0.00304592
211	0xbda2432b	-0.079229675
212	0xbd8ef5e4	-0.06980494
213	0x3d87a433	0.066231154
214	0x3bdab779	0.0066747037
215	0x3dd6fd64	0.10497549
216	0x3d6bc2c6	0.057558797
217	0x3d113d30	0.035458744
218	0xbdafb657	-0.085797004
219	0x3dacae9c	0.084317416
220	0x3dd10921	0.10206819
221	0xbe14ceb3	-0.14531974
222	0x3d9aaa29	0.07551987
223	0xbd3f25e4	-0.046666995
224	0xbde08d4f	-0.109644525
225	0xbd78ac0b	-0.060710948
226	0x3dbdcf0d	0.092680074
227	0xbd9899c0	-0.074512005
228	0xbdb7ec8f	-0.08980667
229	0xbdc1be47	-0.09460121
230	0xbe2cdeb5	-0.16881831
231	0x3d86e5a2	0.06586768
232	0x3dcda950	0.100420594
233	0xbdbdf5b2	-0.09275378
234	0xbdc184d0	-0.0944916
235	0xbddcae60	-0.10775447
236	0xbb90ee70	-0.004422955
237	0xbc1887a8	-0.009309687
238	0x3dc201fa	0.09473033
239	0x3dbdbcb0	0.09264505
240	0x3d31d5c1	0.043416742
241	0xbc36b012	-0.011150377
242	0x3d87d8b0	0.06633127
243	0xbd56cf14	-0.05244358
244	0xbe0c695d	-0.13712068
245	0xbc4406bd	-0.011964497
246	0xbd20c1e4	-0.03924741
247	0xbd42f1b1	-0.047593776
248	0x3ce9987f	0.028515099
249	0x3dcc118b	0.099642836
250	0xbd726c5f	-0.059185382
251	0xbd4bae06	-0.04972651
252	0xbe075bff	-0.13218687
253	0xbc3bc457	-0.011460385
254	0xbdc7811b	-0.09741422
255	0xbd5a1215	-0.0532399

net.4.bias f4 [8]
0	0xbd93362e	-0.07188068
1	0x3c9988a6	0.018741917
2	0xbd514526	-0.051091336
3	0x3de710a3	0.1128247
4	0xbcdfde20	-0.027327597
5	0xbe1cdfe3	-0.15319781
6	0xbb87c88f	-0.0041437815
7	0xbe2757b0	-0.16342044

net.6.weight f4 [1, 8]
0	0x3d949dc7	0.07256656
1	0x3d198708	0.03748229
2	0xbd396cc7	-0.045269754
3	0xbead3702	-0.3383103
4	0x3f037d6e	0.51363266
5	0xbf2b3d68	-0.66890574
6	0xbee732a4	-0.45155823
7	0x3ef3697b	0.47541413
