HW2/model2.pth (torch, 9477 bytes, 7 tensors)

net.0.weight f4 [64, 8]
00000000: 4c69 8cbe 8fca a7bd d914 3abe 5137 7cbe
00000010: 2779 95be 1cdd 85be 1946 8cbe d2f9 063e
00000020: 9bf3 9dbc 5f04 82be 9a5c 69bc d068 773e
00000030: c3a9 a73e 89f5 553e bdba a8be 1e45 0dbe
00000040: 4356 70be d27c cf3c 4dca 0bbe 450c 91bd
00000050: b24b 88be 0772 50be 36df 51be aa27 fc3e
00000060: ae06 703e ba52 893c 02d2 993e 1be1 483d
00000070: f756 aa3e 0c79 31bd 6722 863e 3aaa 383e
00000080: e67e 58be 4ed3 963e 2526 03be b137 4bbe
00000090: 988a 91be 52cc 11be 3e5b 013d 2727 b1be
000000a0: 2a39 523e d033 95be a18e 0cbe 9c68 623e
000000b0: 81d6 3abe 49b4 933e fa67 8c3e 9894 40bd
000000c0: 3a5c 8f3e e11c 85be 9f26 37bc baa3 fdbc
000000d0: efe2 a23e fdeb 383e 678f 273c 2f87 253e
000000e0: d575 eabc f7a7 393e b524 84bc 26ae 28bd
000000f0: 23e8 83be 29c2 813d 4ad5 afbe da65 a03d
00000100: 2d24 19be 4289 afba aef6 913e afab abbe
00000110: af9f 03be a491 3a3e d1b1 a93e 40aa 633e
00000120: e07d a33e 6e85 90be 2a5f 99bd 4b91 883e
00000130: 21c5 d0bd 75fa a13e cbce 893e 5fd3 7e3e
00000140: 355e a7be d9b1 8f3e 62bd 5ebe 377e e4bd
00000150: ec0e 9e3e 4af1 0d3d 64ad 073e 2382 aa3e
00000160: 0faf a2be ce12 183e 566b 3bbe 4565 283e
00000170: a486 9f3e 7320 24be c608 0ebd f1e4 053e
00000180: fab6 aa3d df1b 9f3e 3a90 19be 3027 d33d
00000190: f885 22be 14d7 a2be ab47 a5bd 4b53 c13e
000001a0: 3bcf 0c3e 74ec e3bd a94c 1fbe b48d 29be
000001b0: 1277 3abe 80dc 1cbe 69df 82be d7f9 ef3e
000001c0: c720 89be 1851 9cbe 0cce 023e dbda 443e
000001d0: 0468 7cbe 0b57 68be e999 693d c50a 973e
000001e0: 8867 993d c4f5 193d ff3b 49be 2b32 66be
000001f0: 1a95 4a3e e78c 923c 8cfa f23b 2c07 27be
00000200: 9884 763e e339 69be a254 803c 1f70 6fbe
00000210: 2d44 0cbe abb3 2abd 9e92 643e d011 c23e
00000220: 5093 a9be 7821 acbe 7e61 3f3e 14e5 763e
00000230: 4fc8 93be 1b82 8b3e 8f34 39be d4b2 b73e
00000240: a88b 79be 8b36 6fbe ee7e b0be 974a 903c
00000250: 5f43 873d 8d68 b9bd b4d1 f5bc 4b4c 0e3e
00000260: be72 e53c 91b9 143e 672a a23b 7e39 9cbe
00000270: 1de3 95be 471f 9c3e 8cb6 943e c7c4 b03e
00000280: b7ca 483e 1cf2 78bd 0f33 8c3e d19e a3be
00000290: e09b 393d 50af 8e3e f8af fc3b 830d b4be
000002a0: cbbf 613e 8a5f 853e e4ce 973e 53e1 7a3e
000002b0: b377 6c3d 7e4a 663d 0130 7fbe f0fc 1f3e
000002c0: 078e 26be 6c67 af3e 82b5 933d 465e fabc
000002d0: e420 3fbd d6ab 373e a5ad b1be eb6c b23d
000002e0: a939 c43d 827d 8abe ba49 f13c 2033 89be
000002f0: 6653 33be c5fd 90be 02b9 593e 31d8 b0be
00000300: 69c7 1abe e8fc 01be eec5 49bc b714 16be
00000310: 8874 21be 77eb 593e 4f1b 93bd 4cf1 b9be
00000320: 1434 203d 55f8 5cbe d38c 8dbe 8a46 443e
00000330: 9725 b43e 3b0a b1be 7d46 84be 4ee9 97be
00000340: 2344 4fbe 30ef a53c cdfd 363e 5221 1fbe
00000350: ecc2 70be 21d2 613d a016 d93d 6ed3 adbd
00000360: e0c1 a63e 01cc ad3d ee1d ff3d 1fe6 7bbe
00000370: d042 8dbe 31cd 9bbe 69dc 27be 1e3b 74bd
00000380: d15b 03be 5a81 4f3e df01 b6bc b295 80bb
00000390: dd01 84be 65c3 b0be 62df 413d ecb9 4f3e
000003a0: 9978 33be 8c75 a53d 930a 86be 88e1 40be
000003b0: dc12 183e e6c0 d13a 78e6 81be de0e cbbe
000003c0: 6727 883e 4004 2b3e bf17 19bd 4302 543d
000003d0: 87db 5b3e 8784 71bd 7c3c a63e 692b 7f3e
000003e0: ac3d 49be 8769 acbe 26c7 0d3e bca1 33be
000003f0: 2d64 00be cf84 443e 0e30 413e 80c5 133e
-0.27424085 -0.08192932 -0.18172015 -0.24630477 -0.29193994 -0.26145256 -0.2739723 0.13181236
-0.0192812 -0.2539396 -0.014243269 0.24161077 0.32746705 0.20894445 -0.3295497 -0.13795897
-0.23470406 0.025328074 -0.1365139 -0.07082418 -0.2662025 -0.20355998 -0.20495304 0.4924901
0.23440048 0.01676308 0.30043036 0.049042802 0.33269474 -0.04332833 0.26198122 0.18033686
-0.21142158 0.29458088 -0.1280752 -0.19845463 -0.2842605 -0.14238098 0.031581156 -0.34600183
0.20529619 -0.29141092 -0.13726284 0.22110218 -0.18245889 0.28848484 0.27423078 -0.04701671
0.2800005 -0.25998595 -0.011178642 -0.03096186 0.31813762 0.18058772 0.010227061 0.1616485
-0.02862064 0.1813048 -0.016130785 -0.041181706 -0.25763044 0.06335861 -0.34342414 0.07831927
-0.14955206 -0.0013392346 0.28508514 -0.33529422 -0.12853883 0.1821962 0.33143476 0.22232914
0.31931973 -0.282268 -0.07488854 0.2667335 -0.10193849 0.31636396 0.26915583 0.24885319
-0.32689062 0.28065374 -0.21751931 -0.11156886 0.3087076 0.03465394 0.13249737 0.3330241
-0.31774184 0.14850923 -0.18302664 0.16444881 0.3115741 -0.16028003 -0.034676336 0.13075615
0.08335681 0.3107595 -0.14996424 0.10310209 -0.15871418 -0.31804717 -0.0807031 0.3775886
0.13750927 -0.11129084 -0.15556587 -0.16557962 -0.18209484 -0.15318489 -0.25561073 0.468703
-0.2678282 -0.3053062 0.12773913 0.19224112 -0.24649054 -0.22689454 0.057031546 0.29500404
0.0749045 0.037587896 -0.19651793 -0.22480075 0.1978344 0.017889453 0.0074151214 -0.1631133
0.24074018 -0.22775988 0.015665356 -0.23382615 -0.13697882 -0.04167525 0.22321555 0.37904215
-0.33120203 -0.33619285 0.18689534 0.24110824 -0.2886376 0.272477 -0.18086456 0.35878623
-0.24369681 -0.2336065 -0.3447184 0.017613692 0.06604647 -0.090531446 -0.03000722 0.13896291
0.028008815 0.14523913 0.0049489024 -0.30512613 -0.29274836 0.30492613 0.29045522 0.3452513
0.1960858 -0.06077777 0.27382705 -0.31957105 0.04531467 0.27868128 0.007711407 -0.3516656
0.2204582 0.26049453 0.29650033 0.24500017 0.05773134 0.056223385 -0.24920656 0.15623832
-0.16265117 0.34258592 0.07212354 -0.030562531 -0.046662226 0.17936644 -0.34702793 0.08712181
0.0958131 -0.2704888 0.0294541 -0.26796818 -0.17512283 -0.2831861 0.21261981 -0.3453994
-0.15115131 -0.12694132 -0.0123152565 -0.1465634 -0.1576711 0.21281229 -0.07182943 -0.36316907
0.039112166 -0.21579106 -0.27646503 0.19167534 0.3518493 -0.34578118 -0.25835028 -0.29670185
-0.20240836 0.020255655 0.17870255 -0.15540054 -0.23511857 0.055132035 0.106000185 -0.08487593
0.3256979 0.08486176 0.124568805 -0.24599503 -0.27590036 -0.30429986 -0.16392674 -0.05962669
-0.12827994 0.20264187 -0.02221769 -0.003924095 -0.25782672 -0.34524074 0.047332175 0.20285767
-0.17526473 0.08079061 -0.26179942 -0.18836033 0.14850944 0.0016002923 -0.25371146 -0.3965978
0.26592562 0.1670084 -0.03737616 0.05175997 0.21470462 -0.05896428 0.3246802 0.24918903
-0.19652432 -0.3367426 0.138455 -0.17542166 -0.12538214 0.19191287 0.18865988 0.14430809

net.0.bias f4 [64]
00000000: d830 90be 189c e5bd d571 7e3e eab4 97be
00000010: 638e 85be 709e e4bd 7c28 443e 8ff3 303e
00000020: 22b2 493d e84f 09be a4cf a1be 0cdd 013d
00000030: c31f 503e b0f9 063e 1564 5a3d a318 73be
00000040: d73d 093e 8108 0f3e e468 83be 776a 8b3e
00000050: fd4b 533e c16d 4bbd 9f7e 833e 0c47 f1be
00000060: 9ad2 8cbe 063a 76bc 67de d4bd 63da 493e
00000070: e677 023e cec7 27be fe02 4ebd ae7d afbe
00000080: 26c0 c0bd 6102 9cbe 4404 ec3d 6069 c5bd
00000090: 6435 54be fd7a 9a3e f238 7cbe 5b46 3ebe
000000a0: 6a7e b5bd 701e b33e 8ea1 153e a31d 27be
000000b0: 93d7 243e bd42 6cbe aca0 fe3d 9b68 32be
000000c0: ea00 a1be b082 153e 6b73 d13e 3965 793d
000000d0: e62c 92bc a243 853e bd0c ce3e 6591 88be
000000e0: eefd c0bd bf55 1c3e 4116 903d 2ce3 213e
000000f0: 3ec6 0bbe c91e 53bd d23c 40be 6672 6c3d
-0.28162265 -0.11211413 0.24848111 -0.29630214 -0.26085195 -0.11163032 0.19156069 0.1728041
0.049242146 -0.13409388 -0.3160373 0.031704947 0.20324616 0.13181186 0.053318102 -0.23739867
0.13402496 0.13968088 -0.25665963 0.27229664 0.20634456 -0.049665216 0.25682542 -0.47124517
-0.27504426 -0.015028482 -0.103939824 0.19712214 0.1274105 -0.16384813 -0.050295822 -0.34275573
-0.094116494 -0.30470565 0.11524251 -0.09639239 -0.20723492 0.30171958 -0.24631098 -0.18581526
-0.08862002 0.3498416 0.1461241 -0.163199 0.1609786 -0.23072334 0.124329895 -0.17422716
-0.3144601 0.14600635 0.4090837 0.06088755 -0.017843675 0.26028162 0.40244094 -0.26673427
-0.09423433 0.15267085 0.070354946 0.15809315 -0.13649842 -0.05154303 -0.18773201 0.057726286

net.2.weight f4 [16, 64]
00000000: a5e6 b33d 7dda 0dbe cef7 d6bd dd53 443d
00000010: 0377 04bc ea6d 2e3e 548b fabd 3130 f7bb
00000020: e604 913d 6ac9 263e 108c 5a3d 4f9c f7bb
00000030: adea e33c 8e18 00be fe48 f13d 1716 01be
00000040: 7a81 553d 4de7 533d f00a 2fbd 7c7a 663d
00000050: 81d2 32be 8cac bebd 391c d0bd 86f6 173e
00000060: 1682 b23d 3f2f efbd 8705 fc3d 37c2 b53c
00000070: 50bd cdbc b525 a4bd 7dad b4bb d9b2 4fbd
00000080: ed2d 60bc 77f4 bbbb c9d0 4ebd 2fd5 cd3d
00000090: 7d98 b6bd 47d0 f93c 9424 dc3d 4161 5b3d
000000a0: 32b8 d43d e502 bebd e9d3 f33d 5f71 413e
000000b0: 951d b8bd f602 493d 06d4 5b3c 5d89 e23d
000000c0: 7624 c2bc adfa d0bd 7599 40bd 7e3f ce3d
000000d0: e95f a73d fb21 963c b111 29be 6945 1dbd
000000e0: 3305 ae3d f05c 633d d1a2 e5bb 482b 01be
000000f0: 31be bd3d 0202 f0bc 73cc 1e3e cdb1 e73d
00000100: 946d c9bc abb4 cb3d 7db5 3e3d 5e6f c1bd
00000110: d808 66bd f1be d73d d41f a13d 7fc2 093c
00000120: 11ce 95bc e22a 0a3e 279e 99bd ef92 d2bd
00000130: b843 3e3d 0d66 2d3d be69 e33d dc61 9bbc
00000140: ba27 a2bc 66cc 07bd 6b22 003e 21f7 52bd
00000150: 1f6f 19be 1324 1b3d 55a0 67bd 19c1 bbbd
00000160: 3689 bbbd 5474 803d 9828 ef3d 3513 053d
00000170: abec 42bb 8432 7abd b480 6b3d 22ed fa3d
00000180: 2ab9 dc3d 9ac6 863d d342 e93d 3bea 9f3c
00000190: 43ac fbbd b9cc a93d 647b 823d a68a 75bd
000001a0: 1df0 08be 37b5 9ebd ac9f 3bbd 03f2 f13d
000001b0: 306f 4ebc bb22 ccbd 17ab d3bd 7a0e 6b3c
000001c0: 1300 d83d ff74 febd 11c3 e5bd b170 1ebd
000001d0: 9719 8dbd 862b e03d 9c6c 85bd 52c0 01bd
000001e0: ed1e c53c f91a e73d 5f7e 63bd a4ec 533d
000001f0: 81d6 8ebd cb93 b2bd 65e2 42bd 0270 853d
00000200: 5ea7 68bd 4a45 efbd 490d c2ba 8b12 cebc
00000210: ee97 fcbc cf23 2d3d c562 c0bd 347e ef3c
00000220: 5f3a 463d 4954 12bd ac9b a7bd 0975 733d
00000230: 1f37 2f3d 90f3 a43c 7403 02bd 7fad 763c
00000240: 5324 edbd b788 4bbc 660f 1abd 89d4 e1bd
00000250: 4513 ee3c 16d8 8abb 6ff8 92bd 9340 8abc
00000260: 04bd 583d 76a9 173c 93ac fc3b 1dc1 3bbc
00000270: 59e3 b73b dd12 c43d f907 d6bd 9fd1 b2bd
00000280: cc8c eebc 130d 043d 88cb 64bd 1819 f73d
00000290: 122b 81bd fa8c ed3c e76d 093e 600b 3dbd
000002a0: 423a f5bd b9ae c6bd 5926 973b 14f9 033a
000002b0: cd5f 9f3d 08cc febd 3931 81bd c3b1 81bd
000002c0: 19a7 113e d2f6 693d baf7 0bbc 67f4 3c3d
000002d0: 7ef6 123e ba05 db3d aa2b 49be 1156 3f3d
000002e0: 5eb4 ef3b 2e1d 863d eb8b f5bc 7d25 c4bd
000002f0: c366 98ba ddad 303c d2f6 6cbd 08c2 f83d
00000300: ebdf e2bd 5444 88bc 0ce3 a43d 95ba 4b3d
00000310: cdeb f83c 8ec8 84bd 95d1 d5bc 8a8d 163d
00000320: e8da 9dba ce16 dabd e13f b2bd f81d 053c
00000330: 47a2 083e 6fe1 273e 8368 67bd c072 cf3d
00000340: b788 fa3d f57f e83d a96f 11be 9303 213e
00000350: ad32 203d 9911 993d 72f6 d3b9 e9f2 273c
00000360: 4074 fdbc bd69 0ebe 7d6d aa3d 33fb 7d3d
00000370: d871 acbd 88bd a33d 7b8c e13d d912 873d
00000380: 8f95 093d b577 8d3d 36b7 20bc 4370 da3c
00000390: 4e07 6a3d 8d47 60bd 40f3 06be 619f a7bd
000003a0: 3b6b a63d aeb1 8fbd cbc5 b8bc 3b9b 22be
000003b0: 90db 38bd 6e36 633d c5c9 e3bd e1e4 393d
000003c0: d803 643c d787 94bc 9764 193e b7b9 11bd
000003d0: ce6e 0bbe d7eb c53b 684d 0d3e a3c2 bd3d
000003e0: 576a b6bb cd7b ecbd fb33 003e a730 6cbd
000003f0: 79d8 41bd f901 15bc 1232 c43d 47a1 a1bd
0.08784226 -0.13852878 -0.10496484 0.04793154 -0.008085015 0.17034116 -0.12233606 -0.0075435867
0.070810124 0.16287771 0.05335623 -0.0075564752 0.027821863 -0.12509367 0.117815 -0.12606083
0.05212543 0.051734257 -0.04273504 0.056269154 -0.17463113 -0.093102545 -0.10161633 0.14840135
0.08716218 -0.11678933 0.12305742 0.022187335 -0.025114685 -0.080150045 -0.0055138455 -0.05070767
-0.013682825 -0.0057359296 -0.05049208 0.10050427 -0.089158036 0.030494822 0.10749164 0.053559545
0.10386695 -0.09277896 0.11905653 0.18890904 -0.08990017 0.04907509 0.01341725 0.11061356
-0.023699027 -0.102040626 -0.047021348 0.10070704 0.0817259 0.01832675 -0.16510655 -0.038396273
0.084970854 0.055508554 -0.0070079346 -0.12614167 0.09264792 -0.029297832 0.15507679 0.1131321
-0.024588384 0.09946569 0.0465598 -0.0944507 -0.056160778 0.10534466 0.07867399 0.008408188
-0.018286737 0.13492921 -0.07500868 -0.102819316 0.0464513 0.04233365 0.11104153 -0.018967561
-0.019794334 -0.033153914 0.1251313 -0.05150521 -0.14983796 0.0378762 -0.05654939 -0.0916769
-0.0915703 0.06272188 0.116776645 0.03248902 -0.0029743116 -0.06108333 0.057495788 0.12252261
0.10777505 0.06580849 0.11389699 0.01952087 -0.12288716 0.08291001 0.06371191 -0.05994668
-0.13372846 -0.07749408 -0.04580657 0.11813738 -0.012599751 -0.09967562 -0.10335367 0.014346713
0.10546889 -0.12424659 -0.112188466 -0.03868169 -0.068896465 0.109458014 -0.06514856 -0.03167755
0.024062598 0.112844415 -0.05554044 0.05173935 -0.06974507 -0.087195955 -0.047579188 0.065155044
-0.05680024 -0.11683138 -0.0014804985 -0.025155326 -0.030834164 0.042270478 -0.09393839 0.029234983
0.04839551 -0.03572491 -0.08183989 0.059437785 0.042777177 0.02013567 -0.031741574 0.015056013
-0.11579194 -0.012422732 -0.03761234 -0.11026866 0.029061923 -0.004237185 -0.07176291 -0.016876495
0.052914634 0.009256711 0.007711002 -0.011459616 0.0056118187 0.095739104 -0.104507394 -0.08731388
-0.029119872 0.03223903 -0.055858165 0.12065333 -0.06307043 0.028997887 0.1342083 -0.046153426
-0.119740024 -0.097012945 0.0046127257 0.0005034369 0.077819444 -0.124412596 -0.063082166 -0.063327335
0.14223899 0.05712015 -0.008542949 0.046131518 0.14351842 0.10694452 -0.19645563 0.04671294
0.0073152026 0.06548534 -0.029973945 -0.09577463 -0.0011627305 0.01078364 -0.057852574 0.121463835
-0.11077865 -0.016634144 0.08051118 0.049738485 0.030385876 -0.06483565 -0.026100913 0.036756076
-0.0012043389 -0.10648881 -0.0870359 0.008124821 0.13343154 0.1639459 -0.056496155 0.10129309
0.122331075 0.11352531 -0.14202751 0.1572402 0.03911083 0.074740596 -0.00040428672 0.010250785
-0.030939221 -0.13907523 0.083216645 0.06200714 -0.084201515 0.079951346 0.11013123 0.06595392
0.033589896 0.06907598 -0.009809306 0.026664859 0.057135873 -0.054755736 -0.1317873 -0.08184696
0.08125921 -0.070163116 -0.022555253 -0.15879528 -0.045131266 0.05547183 -0.11122469 0.04538429
0.013916932 -0.01813118 0.14979778 -0.035577502 -0.13616487 0.006040077 0.1379906 0.0926564
-0.005566876 -0.115470506 0.12519829 -0.057663586 -0.047325585 -0.009094709 0.09579863 -0.07892089

net.2.bias f4 [16]
00000000: 2aa2 5dbd a316 063d 496d 623c 65bc 7cbd
00000010: f520 433e 16bc 25bd afbd 60bd 6d63 ebbc
00000020: 53a9 e13d c3ab d73d aeb7 74bc 855a 7f3c
00000030: 1f86 acbb 41d7 69bd 447c dc3c 3d5b e63d
-0.05410973 0.03273643 0.013820001 -0.061703105 0.19055541 -0.040462576 -0.054868396 -0.028733933
0.11018624 0.10530808 -0.014936371 0.015585546 -0.005265012 -0.057090048 0.026914723 0.11247871

net.4.weight f4 [8, 16]
00000000: c380 943e f21e 763d 8381 0a3e 6883 f13d
00000010: 024f 17bc 8199 793c a9aa d5bd f754 073e
00000020: 791b 67be b44f 5abe 923a d53d 67b2 733d
00000030: a6ec 1e3d 2c56 4fbe d4f6 383e f15c 903d
00000040: 1736 963e f3eb b73d fdc0 263e b586 58be
00000050: 9060 6abe 393d 7b3d 82e4 413e 4e78 35be
00000060: ea9c 073d adfd e8bd c5da c03e 2856 19be
00000070: 5894 6b3e 13a9 babd 18c3 50be 6300 6e3e
00000080: 1d1f 1abe 6d87 503d 69a4 46be 7367 823e
00000090: a2c9 183f 8df6 a33e 4ac9 20be 60b5 2f3e
000000a0: 4792 9d3e 17a9 8e3e 14d9 7bbe f218 c83e
000000b0: 13d3 49be 8435 133e 1d08 bebe 3fca c73e
000000c0: 9cd9 283e b30a f6bb ebac 01be 3138 a7bd
000000d0: 388b 753e 6feb 9cbd 6af0 3cbd d307 45bd
000000e0: ad3c 143e 089c e9bc 5ee3 63be b38f 933d
000000f0: f25c 3f3d fe14 7abc cc30 ebbd 8fe1 d93d
00000100: 9652 483e 2c17 a43e 52f5 293e 850d 47be
00000110: d3c1 3e3e 29be 6f3e 72b6 aa3d c76b 4dbe
00000120: 4f3e 63bd f5e3 0fbe 2969 a03e 72f0 edbd
00000130: e75b 4ebe 3b2a 6dbe e0f7 c2bd b01e 7abe
00000140: b593 f43d 2617 233d dd97 27be 3f84 eebc
00000150: 2806 7fbe e97c 21bd d14d 9e3d 74d8 2ebe
00000160: e12d 1e3e b9ce 4dbe 918d 50bd f082 803e
00000170: 802f 5d3d b9ea e5bd f034 9fbd 2d8d 563d
00000180: 0cf1 9c3c 4ab5 403e b0f5 703e 5093 1c3e
00000190: c5e2 6ebe 7f1b 43be f3f8 22bd 4b72 84bd
000001a0: 0424 dfbd f5fe 023e 9290 3b3d 22de 3cbe
000001b0: d5c5 c53d 9246 1e3e e6fc d6bd 91e8 dfbd
000001c0: 07cc 2d3e 273d 333e fbfd c73a 3697 1a3e
000001d0: de05 c03d f58c 873d 099a dfbd d065 49bd
000001e0: 1d52 15be e174 37be 1d9a 213c e0e1 c73d
000001f0: 1d6e 32bd 463f 64be 5ff4 f33d bfed a73d
0.29004487 0.060088105 0.13525967 0.11792642 -0.0092351455 0.015234352 -0.104329415 0.13216005
-0.22569074 -0.21319467 0.10411562 0.05949631 0.038799904 -0.20247716 0.18062907 0.07048977
0.29338142 0.089805506 0.16284557 -0.21145137 -0.22888398 0.061337683 0.18934825 -0.17721674
0.03310863 -0.1137651 0.37666908 -0.14974272 0.23005807 -0.091142796 -0.20386922 0.23242335
-0.15050931 0.050910402 -0.19398655 0.2546955 0.5968267 0.3202404 -0.15701786 0.17159033
0.30775663 0.2786338 -0.24594527 0.39081532 -0.19709425 0.14375883 -0.37115565 0.3902149
0.16489261 -0.0075085997 -0.12663619 -0.081650145 0.23978889 -0.07662093 -0.046127714 -0.048103165
0.14476271 -0.028516784 -0.22254702 0.07205143 0.0467195 -0.015263794 -0.11483917 0.10638725
0.19562754 0.3204893 0.16597489 -0.19438751 0.18628626 0.23412384 0.0833558 -0.20060645
-0.055479344 -0.14051802 0.3133023 -0.11618127 -0.20152245 -0.23160641 -0.09519935 -0.24425769
0.119422354 0.039816998 -0.16366525 -0.029115794 -0.24904692 -0.039425764 0.07729686 -0.17074758
0.15447189 -0.2009839 -0.05091626 0.25099897 0.054000378 -0.112264104 -0.07773769 0.05238073
0.019157909 0.18819156 0.23531222 0.1529057 -0.23328693 -0.19053458 -0.039788198 -0.06467112
-0.10895541 0.12792571 0.04579217 -0.18444112 0.09656874 0.15456608 -0.10497455 -0.109330304
0.16972362 0.17503797 0.0015258187 0.15096745 0.09376119 0.06618682 -0.10918052 -0.04916936
-0.14582105 -0.1791568 0.009863404 0.09759879 -0.043562043 -0.22289762 0.119118445 0.08199643

net.4.bias f4 [8]
00000000: 86ba 4b3e f1c5 8d3e 2a3c a53e a070 26be
00000010: 1bc6 a53c 0e0d 933d 027f 793e 3109 183e
0.19895372 0.2769008 0.32272464 -0.162539 0.020236066 0.07180224 0.24364856 0.14847256

net.6.weight f4 [1, 8]
00000000: 2ab4 8dbe 2217 1ebf 1976 523f adfb ef3d
00000010: a25c efbe 383d a9bd 77ce 32bc e6b4 02be
-0.27676517 -0.6175405 0.8221145 0.11717925 -0.4675036 -0.0826363 -0.010913483 -0.1276432
